#                  from  n    params  module                                  arguments
#  0                -1  1      3520  models.common.Focus                     [3, 32, 3]
#  1                -1  1     18560  models.common.Conv                      [32, 64, 3, 2]
#  2                -1  1     18816  models.common.C3                        [64, 64, 1]
#  3                -1  1     73984  models.common.Conv                      [64, 128, 3, 2]
#  4                -1  1    156928  models.common.C3                        [128, 128, 3]
#  5                -1  1    295424  models.common.Conv                      [128, 256, 3, 2]
#  6                -1  1    625152  models.common.C3                        [256, 256, 3]
#  7                -1  1   1180672  models.common.Conv                      [256, 512, 3, 2]
#  8                -1  1    656896  models.common.SPP                       [512, 512, [5, 9, 13]]
#  9                -1  1   1182720  models.common.C3                        [512, 512, 1, False]
# 10                -1  1    131584  models.common.Conv                      [512, 256, 1, 1]
# 11                -1  1         0  torch.nn.modules.upsampling.Upsample    [None, 2, 'nearest']
# 12           [-1, 6]  1         0  models.common.Concat                    [1]
# 13                -1  1    361984  models.common.C3                        [512, 256, 1, False]
# 14                -1  1     33024  models.common.Conv                      [256, 128, 1, 1]
# 15                -1  1         0  torch.nn.modules.upsampling.Upsample    [None, 2, 'nearest']
# 16           [-1, 4]  1         0  models.common.Concat                    [1]
# 17                -1  1     90880  models.common.C3                        [256, 128, 1, False]
# 18                -1  1    147712  models.common.Conv                      [128, 128, 3, 2]
# 22          [-1, 10]  1         0  models.common.Concat                    [1]
# 23                -1  1   1182720  models.common.C3                        [512, 512, 1, False]
# parameters
nc: 2 # number of classes
# depth_multiple表示BottleneckCSP模块的缩放因子，将所有BottleneckCSP模块的Bottleneck乘上该参数得到最终个数。
# width_multiple表示卷积通道的缩放因子，就是将配置里面的backbone和head部分有关Conv通道的设置，全部乘以该系数。
depth_multiple: 0.33 # model depth multiple 控制模型的深度（BottleneckCSP个数）
width_multiple: 0.50 # layer channel multiple  控制Conv通道channel个数（卷积核数量）

# anchors
anchors:
    - [10, 13, 16, 30, 33, 23] # P3/8
…
